discriminator_gpu_final.pth (torch, 40872 bytes, 5 tensors)

model.0.weight f4 [128, 8]
-0.18070452 -0.08403314 0.46785456 0.1423468 -0.010275996 0.0044615366 -0.00024762473 -0.09779243
0.34185827 -0.14397007 0.3280552 0.18401647 0.2224518 -0.21439172 0.21088578 0.31873932
-0.01217778 -0.4182925 0.3499143 -0.73530304 -0.18519518 0.16772537 -0.15448368 -0.10294504
0.32920727 0.3786958 -0.54626745 -0.013703102 0.1958744 -0.0138006825 -0.0056786854 0.39919344
0.4457051 -0.08205769 0.15078206 0.3093127 -0.07729141 -0.26431686 -0.0818862 -0.18025991
-0.012086727 -0.13961709 0.54905295 -0.61495584 -0.18575206 0.013312837 -0.11550064 -0.3655022
-0.000121082594 2.2439825e-05 0.00011262677 -0.1917538 3.1160656e-05 -0.55761325 -7.2841462e-06 -0.33305365
0.37063858 0.34482843 -0.35836005 -0.019431876 0.08699305 0.33089107 0.0022411554 -0.2811561
-0.19531341 0.08496046 0.2173051 0.5592514 -0.19535993 -0.13155086 -0.21984081 0.5189877
0.16869895 -0.15997225 -0.34036812 0.2195448 0.049988728 0.11153082 -0.38811833 0.4012684
0.045384724 0.45339966 0.0266073 0.74012274 0.26910987 0.07361762 -0.1773634 0.20781216
0.07623766 -0.005995292 0.37422553 0.3026767 -0.0049437643 0.18020387 -0.42902648 -0.28028163
-0.27335855 -0.12604983 -0.0059073903 0.007422351 -0.13878803 0.2507762 -0.25530332 -0.5227401
0.011834576 0.47305575 -0.028214388 0.30636784 -0.31072435 -0.058128472 -0.08649657 0.0037833778
-0.16125473 0.18941887 0.46785173 -1.495632 0.037214063 0.16514766 0.18801221 -0.3408425
-0.3784491 -0.33043215 0.24940515 0.3349845 -0.25579956 -1.4450066e-05 -0.32282048 9.716907e-05
-0.4898921 -0.32219177 0.0067587104 -0.36494088 0.15297924 -0.17185004 0.024849601 -0.25221395
0.3985519 -0.24763036 -0.5939615 0.52198064 -0.21831842 -0.033797726 -0.07522912 0.3521384
0.36879206 0.4176878 -0.336779 -0.44952506 3.763816e-05 1.0258218e-05 1.7686112e-05 7.8538265e-05
-0.3482669 0.4078656 -0.38616282 0.45720202 0.3079818 -0.2070226 0.047179542 0.06332373
-0.24098194 0.5115325 -0.11391247 0.7740002 -0.12414171 0.032567635 0.08800635 -0.18242739
0.15885101 0.23513308 -0.14813471 -0.32343486 0.32151744 -0.23730884 0.2771034 -0.15795565
-0.4102744 0.41122273 0.37668034 0.35679853 0.2710533 0.10558635 -0.048975434 -0.21447384
-0.058153853 -0.048658326 -0.17982931 0.026027158 -0.29255638 -0.200526 -0.074893944 -0.2365824
-0.0443764 -0.30390134 0.6488674 0.18367301 -0.28914034 0.029248016 -0.018212495 0.17985554
-0.020972064 0.36091235 -0.009791868 -0.36513287 0.278637 0.2564532 -0.05735266 -0.37336278
-0.3471957 0.5070263 0.5420486 -0.7452946 -0.15074544 -0.32325748 0.17066169 -0.09516567
0.19514364 0.3502474 0.2579013 -1.3921336 -0.046647154 -0.17033814 0.2410397 -0.5881608
-0.44375765 0.37191254 0.34048304 0.41149718 -0.21367086 -0.00016805582 -0.025560781 -0.35297748
-0.044175327 0.094715 0.32685763 0.48431656 0.23663361 -0.07709896 0.21600793 -0.764362
0.18949553 0.45055336 -0.2121845 -0.087012365 0.16339304 0.3249979 0.10054952 -0.3323357
-0.07564757 -0.35232762 0.2846447 -0.10144785 0.29499152 5.204786e-05 0.15174691 0.028605519
00000000: 9b0a 39be 9119 acbd a28a ef3e 5cc3 113e
00000010: a75c 28bc 1532 923b a1d3 81b9 6647 c8bd
00000020: 0c08 af3e e46c 13be daf6 a73e d06e 3c3e
00000030: 68ca 633e 8189 5bbe 71f2 573e cd31 a33e
00000040: 5085 47bc 6f2a d6be f827 b33e d23c 3cbf
00000050: cea3 3dbe 33c0 2b3e f830 1ebe d9d4 d2bd
00000060: db8d a83e 6ae4 c13e 2fd8 0bbf fa82 60bc
00000070: 4c93 483e 421c 62bc 4414 babb 1563 cc3e
00000080: 7533 e43e dd0d a8bd 9d66 1a3e 3c5e 9e3e
00000090: f54a 9ebd 8a54 87be f4b3 a7bd 0e96 38be
000000a0: 6807 46bc c8f7 0ebe bc8e 0c3f bf6d 1dbf
000000b0: ca35 3ebe 161e 5a3c 998b ecbd 1b23 bbbe
000000c0: b9ed fdb8 283d bc37 0932 ec38 1c5b 44be
000000d0: 80b2 0238 bebf 0ebf 576a f4b6 0286 aabe
000000e0: 57c4 bd3e 5a8d b03e f87a b7be 992f 9fbc
000000f0: 6a29 b23d 8e6a a93e 59e0 123b b1f3 8fbe
00000100: 3d00 48be c0ff ad3d 3a85 5e3e 1a2b 0f3f
00000110: 6f0c 48be 45b5 06be f31d 61be 61dc 043f
00000120: 6bbf 2c3e c4cf 23be bb44 aebe 5ad0 603e
00000130: fbc0 4c3d 456a e43d 72b7 c6be 0d73 cd3e
00000140: 55e5 393d 0024 e83e 8df7 d93c af78 3d3f
00000150: c5c8 893e d6c4 963d c09e 35be b6cc 543e
00000160: 7e22 9c3d 2874 c4bb 7d9a bf3e 71f8 9a3e
00000170: 4dff a1bb 5d87 383e 5ca9 dbbe 1381 8fbe
00000180: a7f5 8bbe 3513 01be c892 c1bb 3137 f33b
00000190: 731e 0ebe bd65 803e 1eb7 82be 4cd2 05bf
000001a0: cfe5 413c 5d34 f23e dc21 e7bc 3fdc 9c3e
000001b0: 4317 9fbe 1f18 6ebd 1d25 b1bd 8cf2 773b
000001c0: f61f 25be 05f7 413e 438a ef3e df70 bfbf
000001d0: c66d 183d 781c 293e 4686 403e e882 aebe
000001e0: 15c4 c1be 672e a9be 1064 7f3e 1783 ab3e
000001f0: 29f8 82be 906e 72b7 ba48 a5be 3fc7 cb38
00000200: 23d3 fabe 52f6 a4be 2c78 dd3b 88d9 babe
00000210: 97a6 1c3e 75f9 2fbe 6491 cb3c 3022 81be
00000220: ff0e cc3e d092 7dbe dc0d 18bf 86a0 053f
00000230: dd8e 5fbe 7c6f 0abd ba11 9abd 7c4b b43e
00000240: 50d2 bc3e 2ddb d53e 4c6e acbe 2628 e6be
00000250: abdd 1d38 b61a 2c37 a35c 9437 e9b4 a438
00000260: 0a50 b2be c3d3 d03e 22b7 c5be 6216 ea3e
00000270: caaf 9d3e bcfd 53be 563f 413d dfaf 813d
00000280: f8c3 76be cbf3 023f f14a e9bd e124 463f
00000290: 023e febd a465 053d ac3c b43d 3fce 3abe
000002a0: d7a9 223e bac6 703e a0b0 17be 4199 a5be
000002b0: ef9d a43e 1701 73be 7fe0 8d3e 20bf 21be
000002c0: 7c0f d2be c98b d23e 3fdc c03e 4cae b63e
000002d0: 80c7 8a3e a83d d83d 779a 48bd 089f 5bbe
000002e0: bc32 6ebd f44d 47bd 2d25 38be e836 d53c
000002f0: f3c9 95be b056 4dbe ff61 99bd a842 72be
00000300: 07c4 35bd f598 9bbe 2d1c 263f c714 3c3e
00000310: 340a 94be 8999 ef3c 5f32 95bc 0d2c 383e
00000320: 9bcd abbc 81c9 b83e 126e 20bc b2f2 babe
00000330: 82a9 8e3e d54d 833e 9fea 6abd 6829 bfbe
00000340: a3c3 b1be 7acc 013f b2c3 0a3f a0cb 3ebf
00000350: 035d 1abe 0182 a5be f0c1 2e3e 38e6 c2bd
00000360: bcd3 473e a153 b33e a40b 843e 6f31 b2bf
00000370: 1611 3fbd 1f6d 2ebe 1cd3 763e b591 16bf
00000380: 3434 e3be 526b be3e cb53 ae3e c2af d23e
00000390: 89cc 5abe 2438 30b9 d864 d1bc 77b9 b4be
000003a0: 30f1 34bd f0f9 c13d e259 a73e 57f8 f73e
000003b0: 1550 723e 0fe6 9dbd 2f31 5d3e 3aad 43bf
000003c0: 1e0b 423e eeae e63e e546 59be 8a33 b2bd
000003d0: 8150 273e 2066 a63e e8ec cd3d e827 aabe
000003e0: 1ded 9abd 4964 b4be f3bc 913e e4c3 cfbd
000003f0: 2109 973e f74d 5a38 8b63 1b3e 1f56 ea3c

model.0.bias f4 [128]
-1.0428734 0.51003367 -0.8178194 -1.2297262 -0.26843452 -0.018624924 1.599892e-05 -0.14932866
0.5482864 0.06940216 0.46221823 -0.6374491 -0.20583953 -0.4590142 0.5526839 0.35643676
0.6677083 -1.0254985 0.40129232 1.3541272 0.15037642 -0.57300866 0.44901064 -0.4807161
0.5436202 -0.3490114 -0.41809675 0.2448809 0.6731264 1.0603387 -0.73175454 0.3910665
-0.047682527 0.6011193 0.3021844 -0.7458401 0.50699586 0.4399454 0.13772236 -0.410422
0.46169353 -1.1771979 -0.38357177 0.4085396 -0.31371093 1.0803949 0.36461928 1.3710822
-0.6977127 -0.033378396 -0.31311363 -1.9250251 0.580149 -0.5973082 -0.31552687 0.059139635
0.039130736 -0.848142 0.2690444 -1.8388965 0.9430357 1.0590237 -0.8060451 0.0001732456
-0.7576906 0.63029885 -0.10545584 1.3671353 -0.4931492 1.3719056 0.34377226 0.5833687
0.4598406 0.8490691 0.80549335 1.4771787 0.3379785 0.45680487 -0.1912635 0.2421083
-1.0285343 -0.9377957 0.41906115 -0.8453553 -0.04081788 -0.14585145 0.7305379 1.0871583
-0.82254803 -0.09339216 0.105031215 -0.33899084 -0.8240098 0.028907921 0.0016047563 -0.7349303
0.3197708 -0.84018266 -0.5418558 -0.3041704 -0.81894284 0.65275735 -0.36693826 1.6741055
0.8388377 0.07377148 -0.6760745 0.13383935 0.76299 0.35255158 0.703175 -0.4848593
-0.35301036 -0.07994684 0.6956462 0.0451064 0.49735007 0.86767375 -0.3835073 4.8556332e-05
0.114652984 -0.5306825 -0.44710964 -0.52387005 0.2211035 -9.427908e-05 -0.7753939 -0.1532082
00000000: e07c 85bf 9191 023f 9d5c 51bf ab67 9dbf
00000010: 4070 89be 4c93 98bc 6b35 8637 9de9 18be
00000020: 7f5c 0c3f b822 8e3d dea7 ec3e dd2f 23bf
00000030: 99c7 52be e903 ebbe b17c 0d3f e17e b63e
00000040: eeee 2a3f 8943 83bf 3076 cd3e 0a54 ad3f
00000050: 47fc 193e b2b0 12bf b9e4 e53e 6c20 f6be
00000060: b22a 0b3f 9fb1 b2be c710 d6be 0fc2 7a3e
00000070: 0352 2c3f 2eb9 873f 4454 3bbf de39 c83e
00000080: c14e 43bd f4e2 193f eab7 9a3e 60ef 3ebf
00000090: 7bca 013f 8640 e13e 1707 0d3e d522 d2be
000000a0: 1863 ec3e 6cae 96bf 8563 c4be 1a2c d13e
000000b0: b89e a0be 614a 8a3f 61af ba3e 9f7f af3f
000000c0: 4d9d 32bf c9b7 08bd 6e50 a0be 3967 f6bf
000000d0: a584 143f 31e9 18bf bd8c a1be 673c 723d
000000e0: 8d47 203d d61f 59bf 30c0 893e f660 ebbf
000000f0: ca6a 713f 178e 873f f958 4ebf 43a9 3539
00000100: 03f8 41bf 445b 213f 3bf9 d7bd 4afe ae3f
00000110: 0d7e fcbe 9a9a af3f eb02 b03e a757 153f
00000120: 3a70 eb3e 985c 593f d034 4e3f 3114 bd3f
00000130: 850b ad3e 54e2 e93e 94da 43be 3deb 773e
00000140: 03a7 83bf 6113 70bf 2f8f d63e 3469 58bf
00000150: a630 27bd 155a 15be 8804 3b3f 0128 8b3f
00000160: 8292 52bf 6444 bfbd 9b1a d73d 3590 adbe
00000170: 4ef2 52bf 4ed0 ec3c b056 d23a 6424 3cbf
00000180: 00b9 a33e 3616 57bf 10b7 0abf 39bc 9bbe
00000190: 3da6 51bf 1b1b 273f 55df bbbe 1749 d63f
000001a0: 11be 563f 8015 973d 3813 2dbf 2f0d 093e
000001b0: 5053 433f a481 b43e 4703 343f 7a3f f8be
000001c0: c6bd b4be 2bbb a3bd df15 323f 7dc1 383d
000001d0: aba4 fe3e de1f 5e3f 125b c4be f7a8 4b38
000001e0: 2fcf ea3d cfda 07bf 8eeb e4be 591c 06bf
000001f0: f568 623e b2b7 c5b8 3780 46bf 9ce2 1cbe

model.2.weight f4 [64, 128]
-0.2205194 0.030351669 0.0409898 -0.028518965 0.020936154 -0.0018109736 -0.06318907 0.045688782
0.0927982 -0.046177946 0.036167603 0.07378136 0.103790104 0.08993743 -0.045056567 0.06892428
0.106067315 -0.037655078 -0.21478476 0.014918815 0.07290784 -0.039377805 0.07116618 0.081266366
0.08015287 0.06327805 0.019675372 0.03854294 0.03025845 0.081444636 0.06635013 -0.04093495
-0.056396082 0.12925099 0.13059121 0.05817384 -0.07175867 0.08553046 0.049280595 -0.031068493
0.05945929 -0.09122967 -0.047920156 -0.036481492 0.13466093 -0.10497543 0.050925914 -0.019243564
-0.017894644 0.10864765 -0.0010584994 -0.0874101 0.025808219 -0.01020673 -0.13615465 0.055759132
0.18095458 0.014331701 0.01775148 0.083679564 0.21024357 -0.03843969 -0.061224103 -0.1492211
0.01296119 0.07959088 0.020433001 0.039972425 0.044319093 0.035262644 -0.03663799 -0.010996853
-0.076885626 0.12820221 -0.013150677 0.09283819 -0.05110998 -0.034004454 -0.046264857 0.22051798
0.06399619 -0.09665644 0.035494316 -0.07262888 0.093919694 0.034509066 -0.0011479191 0.081092864
0.09267979 0.030923896 0.034476187 -0.14338568 -0.05505713 -0.028835993 0.009911057 -0.04210349
0.12117262 0.06708286 -0.033739503 -0.005633345 -0.042423103 0.04073201 0.24798317 0.032461744
0.0097180065 0.04128825 -0.055390023 0.024165433 0.0014847349 0.013632407 0.05180975 -0.081206635
0.0014579063 -0.038880084 0.013124878 0.094804764 -0.056696665 -0.035821173 0.10826622 -0.29257888
-0.035649974 0.02433904 -0.14058608 -0.034790732 -0.08138025 -0.9786322 0.09427083 -0.058219247
-0.16756885 -0.0575999 -0.05711499 0.0042177117 -0.028661923 0.046499267 -0.0162829 0.040900562
0.061638597 0.022955341 -0.028268069 -0.04465834 -0.032412916 -0.019059908 -0.030026883 -0.02303686
0.052344143 -0.055183332 -0.25595462 -0.016353557 -0.07624181 -0.064222164 0.0017542917 0.045031086
0.011656248 -0.038684804 0.020626172 0.042520262 0.040366918 -0.06540281 0.007157195 0.03998375
0.051434007 0.02671539 -0.025435772 0.029959591 -0.053502455 -0.07875225 -0.06418937 -0.027898131
-0.007827861 -0.051088933 0.085214406 0.08420548 -0.060803667 0.036920678 0.058371343 0.059578467
-0.037707344 -0.029731555 -0.021387741 -0.071181476 -0.07259964 -0.040689245 -0.054006997 -0.055056706
0.054415476 0.011520533 -0.02793771 0.023180708 0.0048086317 0.05179388 -0.063484035 -0.08973242
0.012961143 -0.04507298 -0.02065653 0.089216895 -0.10692386 0.047575194 -0.002769473 -0.011060816
-0.056767553 0.014466597 0.020287286 0.022407396 -0.07934715 0.010438521 0.043556035 0.08778796
0.0043356367 -0.07937019 -0.050148606 0.09139964 0.070249245 -0.087467454 -0.07176755 0.1094285
-0.03610027 0.103091985 0.106548205 -0.08516505 0.083508834 -0.0875417 0.0006546343 -0.056757655
0.0102297375 0.08204891 0.11690546 0.055710565 -0.055116225 0.07026182 0.27128282 0.012121405
-0.006353419 -0.104788765 -0.054860804 -0.043165896 -0.0378034 -0.087603204 -0.041410193 -0.10347148
-0.068578996 0.05631415 -0.05252279 -0.01920575 -0.1670117 -0.032878045 0.007400936 -0.18107387
0.03696467 0.023147047 0.016395306 -0.01376784 -0.06397498 -0.3980406 -0.090115 -0.083349824
00000000: d6cf 61be 10a4 f83c ece4 273d 9ba0 e9bc
00000010: 4c82 ab3c 315e edba 4569 81bd 2924 3b3d
00000020: fc0c be3d 1625 3dbd 7b24 143d af1a 973d
00000030: e88f d43d 1e31 b83d 3c8d 38bd 2c28 8d3d
00000040: d239 d93d 363c 1abd 89f0 5bbe 0c6e 743c
00000050: b550 953d 9f4a 21bd 93bf 913d fb6e a63d
00000060: 3027 a43d ec97 813d 3f2e a13c 34df 1d3d
00000070: 92e0 f73c 72cc a63d 94e2 873d 68ab 27bd
00000080: 94ff 66bd 5f5a 043e b4b9 053e b147 6e3d
00000090: 36f6 92bd 982a af3d 73da 493d 5a83 febc
000000a0: 968b 733d 9fd6 babd ed47 44bd 9e6d 15bd
000000b0: 8ee4 093e 5cfd d6bd b197 503d aea4 9dbc
000000c0: ca97 92bc a982 de3d 59bd 8aba 1104 b3bd
000000d0: c26b d33c 213a 27bc 206c 0bbe b063 643d
000000e0: 284c 393e 83cf 6a3c 8d6b 913c 3160 ab3d
000000f0: 174a 573e f072 1dbd 20c6 7abd 6bcd 18be
00000100: 2c5b 543c 8b00 a33d 1c63 a73c 20ba 233d
00000110: f087 353d 906f 103d b811 16bd 252c 34bc
00000120: 3676 9dbd 7147 033e f075 57bc f321 be3d
00000130: b358 51bd 4148 0bbd 3880 3dbd 77cf 613e
00000140: 6f10 833d d0f3 c5bd 7d62 113d 73be 94bd
00000150: f858 c03d 6159 0d3d c675 96ba 0414 a63d
00000160: e7ce bd3d 1c54 fd3c e736 0d3d b2d3 12be
00000170: 9683 61bd 7639 ecbc fc61 223c b674 2cbd
00000180: 5a29 f83d bd62 893d 6f32 0abd ec97 b8bb
00000190: d9c3 2dbd 9cd6 263d 4def 7d3e 9bf6 043d
000001a0: 4638 1f3c de1d 293d a6e0 62bd 96f6 c53c
000001b0: 709b c23a 765a 5f3c 7636 543d aa4f a6bd
000001c0: 3817 bf3a b940 1fbd ba09 573c 0029 c23d
000001d0: c33a 68bd 39b9 12bd aeba dd3d e6cc 95be
000001e0: b505 12bd ab62 c73c ccf5 0fbe ba80 0ebd
000001f0: b0aa a6bd a487 7abf 1111 c13d 4e77 6ebd
00000200: 2b97 2bbe dfed 6bbd 68f1 69bd bb34 8a3b
00000210: 69cc eabc 0476 3e3d b763 85bc 5987 273d
00000220: c178 7c3d d70c bc3c 7092 e7bc aaeb 36bd
00000230: 68c3 04bd 8623 9cbc f0fa f5bc ccb7 bcbc
00000240: d066 563d eb07 62bd 7c0c 83be e5f7 85bc
00000250: ab24 9cbd e986 83bd 43f0 e53a 8472 383d
00000260: d9f9 3e3c f573 1ebd 38f8 a83c ba29 2e3d
00000270: c857 253d e9f1 85bd e786 ea3b 00c6 233d
00000280: 77ac 523d 3cda da3c ae5e d0bc d16d f53c
00000290: 6425 5bbd dc48 a1bd b775 83bd 9f8a e4bc
000002a0: 6e40 00bc a142 51bd e484 ae3d ec73 ac3d
000002b0: 440d 79bd 233a 173d ca16 6f3d 8d08 743d
000002c0: 0473 1abd 978f f3bc 5835 afbc 98c7 91bd
000002d0: 1faf 94bd c4a9 26bd 7136 5dbd 2483 61bd
000002e0: c3e2 5e3d 9ec0 3c3c a0dd e4bc 78e5 bd3c
000002f0: ba91 9d3b d225 543d eb03 82bd a2c5 b7bd
00000300: f95a 543c 729e 38bd e237 a9bc 59b7 b63d
00000310: e6fa dabd 35de 423d 0c80 35bb 6d38 35bc
00000320: 1885 68bd 4e05 6d3c 8631 a63c b78f b73c
00000330: c280 a2bd 5506 2b3c d067 323d 2dca b33d
00000340: f511 8e3b d78c a2bd a068 4dbd bc2f bb3d
00000350: d6de 8f3d 2322 b3bd defa 92bd 0d1c e03d
00000360: e0dd 13bd e421 d33d f235 da3d 046b aebd
00000370: ae06 ab3d 1049 b3bd c49b 2b3a b77a 68bd
00000380: a19a 273c 4209 a83d 216c ef3d c330 643d
00000390: 8dc1 61bd 6ee5 8f3d 95e5 8a3e dc98 463c
000003a0: 5730 d0bb 7e9b d6bd b9b5 60bd b9ce 30bd
000003b0: bdd7 1abd 4f69 b3bd bc9d 29bd dbe8 d3bd
000003c0: 2573 8cbd aba9 663d 2322 57bd 6155 9dbc
000003d0: 1d05 2bbe 21ab 06bd 8d83 f23b 6e6b 39be
000003e0: 4468 173d e09e bd3c 734f 863c 8292 61bc
000003f0: 5005 83bd facb cbbe 378e b8bd 50b3 aabd

model.2.bias f4 [64]
0.14532748 -0.017022531 -0.14944068 -0.011669146 -0.06791607 -0.45746848 -0.13749556 -0.9844629
0.22602352 -0.2952112 -0.082751915 0.091743805 -0.044252995 0.035137188 -0.18845975 0.037130464
-0.036035344 0.15703036 -0.17969689 0.18709226 0.8651831 -0.034763977 0.094735295 0.051964816
-0.10695247 -0.21582113 -0.016625289 0.38088742 -0.14574048 0.32878307 -0.8462508 -0.18934906
-0.27609688 -0.046767812 0.068654306 -0.18882643 -0.3060413 -0.17163934 -0.03266656 -0.15520187
0.2166077 0.17809252 0.3035479 0.41495287 -0.46325305 -0.16384521 0.032515965 0.19607769
0.20881101 0.061665583 0.14337614 -0.7285943 -0.1420963 0.40528265 -0.14703909 1.0923215
-0.08410845 -0.97242856 -0.024728777 0.033558182 0.061893385 -0.11674402 0.7602673 0.08233735
00000000: bad0 143e d672 8bbc fa06 19be f22f 3fbc
00000010: 9517 8bbd 4f39 eabe a3cb 0cbe c305 7cbf
00000020: b672 673e ec25 97be d679 a9bd 2de4 bb3d
00000030: a142 35bd 03ec 0f3d 98fb 40be 1d16 183d
00000040: cc99 13bd 91cc 203e 7602 38be 1d95 3f3e
00000050: a47c 5d3f ac64 0ebd 9404 c23d 0fd9 543d
00000060: e609 dbbd 3700 5dbe c231 88bc ad03 c33e
00000070: fe3c 15be 4156 a83e e4a3 58bf b8e4 41be
00000080: 925c 8dbe 9b8f 3fbd a19a 8c3d b75b 41be
00000090: 72b1 9cbe 39c2 2fbe 5fcd 05bd 3ded 1ebe
000000a0: 69ce 5d3e e35d 363e a16a 9b3e b474 d43e
000000b0: 812f edbe 0ac7 27be 762f 053d 97c8 483e
000000c0: 8ed2 553e 0d95 7c3d 32d1 123e 2885 3abf
000000d0: b181 11be 3581 cf3e 6a91 16be 31d1 8b3f
000000e0: 0d41 acbd 14f1 78bf 0194 cabc 4e74 093d
000000f0: eb83 7d3d 7d17 efbd e1a0 423f 7ca0 a83d

model.4.weight f4 [1, 64]
0.3115696 0.07995749 -0.35090697 0.15959795 0.26504365 -0.37635982 -0.10855289 -0.47764516
-0.19795242 -0.22609672 -0.18231364 -0.15387858 -0.09296453 -0.26275966 0.14258012 0.11531753
-0.06913629 -0.17676753 -0.073158376 0.50292015 -0.40653348 0.08873182 0.09553853 0.41839606
0.18102983 0.19286917 -0.97219235 -0.1584499 -0.43352747 -0.3629952 0.5876917 -0.16062233
0.476637 -0.09325825 0.113160014 -0.18319002 -0.3933893 -0.14694226 -0.0695735 -0.74287415
-0.20954384 0.30560952 0.46668324 0.5335741 0.36511713 0.17375566 0.1738615 -0.34091598
0.48972473 0.14184596 -0.19838813 0.32356974 -0.3690944 -0.1823521 0.21001096 -1.0885476
0.2053352 -0.8033001 -0.4173482 0.08113561 -0.26664975 0.16229793 -0.8691193 0.14439563
00000000: 0d86 9f3e c1c0 a33d 14aa b3be a56d 233e
00000010: cdb3 873e 3cb2 c0be fa50 debd e88d f4be
00000020: 0ab4 4abe e685 67be 6db0 3abe 5992 1dbe
00000030: 3064 bebd 6f88 86be 8600 123e 992b ec3d
00000040: 5497 8dbd 8c02 35be 0fd4 95bd 60bf 003f
00000050: 2825 d0be 07b9 b53d b4a9 c33d 0238 d63e
00000060: e25f 393e 7f7f 453e 99e1 78bf b140 22be
00000070: 50f7 ddbe 82da b9be f772 163f 2e7a 24be
00000080: c409 f43e 2efe bebd 70c0 e73d 2a96 3bbe
00000090: 536a c9be 0878 16be 8d7c 8ebd 002d 3ebf
000000a0: a992 56be da78 9c3e 1bf1 ee3e 5098 083f
000000b0: a2f0 ba3e 01ed 313e c008 323e 8a8c aebe
000000c0: 33bd fa3e 1140 113e 4226 4bbe efaa a53e
000000d0: f1f9 bcbe 82ba 3abe 1d0d 573e 8755 8bbf
000000e0: 6443 523e 13a5 4dbf aaae d5be 6d2a a63d
000000f0: 5186 88be 6e31 263e 9a7e 5ebf 73dc 133e
